data.pth (torch, 5226 bytes, 6 tensors)

l1.weight f4 [8, 48]
00000000: 40d0 f9bd b8c9 363f 02c9 48bd df2b d93e
00000010: a539 debd 2764 01bf 73cb 4a3f 6eb3 9d3d
00000020: c2d9 713e 56fc ff3e 8171 683e aa14 c3be
00000030: 549b 35be 0051 d93e ff02 87be a747 293f
00000040: 5dfc 51be 1715 28bf 74f6 243f ebfb 26bf
00000050: bb6b 16be 6882 ed3c b02d 613c b46d 7fbe
00000060: 009e f23c de62 053f 30fa 0d3e f501 b53e
00000070: c7b5 b4be 2081 64bc d61e a73e 599c 02bf
00000080: dcc4 05bf 20cc 043f ba4c 923e 9669 8a3f
00000090: be12 2c3f 14e6 83be 2e90 703e e553 bcbd
000000a0: 0be7 c9bc a74b 13be 0005 aebe ccf5 9ebe
000000b0: 16e6 9cbe 591b ae3e e5c6 273e ed17 b73d
000000c0: 5da9 683e 1fe4 643e befa 873e 8686 27bf
000000d0: 2e51 303f 9b03 a13e d3c1 c63e b56e dc3d
000000e0: 09ce a0be 373e 44bf 46fd fcbe ed71 253f
000000f0: 0382 dabe 9ef4 b53e 2ce7 223f 1939 f93e
00000100: 1537 af3a 0c6f 463f 98e9 6a3e eb88 533f
00000110: b47f b33e 512c 323f 64d8 2e3e 110c ed3e
00000120: 67d7 81be c182 8d3e 495a 373d 3167 f1be
00000130: 5d9b 133e fd70 c3be 2360 55bf 2a60 3f3e
00000140: 37fe 2fbd 4d01 2d3e aec4 a2be 7a76 4c3e
00000150: c49b 8a3e 570e d33e 455a 603e 8059 943d
00000160: 5a7a 8ebf 6bd8 543d db79 1d3e ab2e 093f
00000170: 273e 653d a935 233e 7914 e13e 8afa 39be
00000180: 9878 ab3e e58b 98be 1de6 133f 2977 313d
00000190: aa8e fb3d dde9 05bf 293f 543f 4cd2 1a3f
000001a0: 2aba 313d e466 b33c 3b66 2dbe 2b68 753e
000001b0: 5a3a 6dbe 2846 da3e b76a 153e a7fc 1b3f
000001c0: ddf7 08be 6507 163e a350 f3bd 96da 923e
000001d0: 763d 9dbc 3ed1 da3e 2e91 c83e 4477 e83d
000001e0: 2167 dbbd 56fc 2c3f ad04 053f de53 bc3d
000001f0: d42d 1a3f 4537 cbbd eb5f d83b a53a a53c
00000200: 7c2c cb3e f664 183f cfdb d0bd 5730 36bf
00000210: 5c84 a5be c595 283d bf34 f73e 1884 a23e
00000220: 5297 653f ebc0 103f ab9f d9be c09c 313d
00000230: 61e2 76be 5db2 173f 697f 8fbe 8a2d 6a3e
00000240: f0b4 a83e ffa0 b1be 9b76 973e 36ad 7abe
00000250: 3120 d93e 4610 c73e 88e6 c8bd 37d2 923e
00000260: a98e 1cbe cbb3 90be 1917 c3be a39a 183f
00000270: 3860 393f 82bc a13e f2c1 cf3e bc25 b23d
00000280: ece1 dd3e 8b58 243f c53d b3bd 4479 cf3e
00000290: efb6 ed3d 51db 133f 86e3 b23e a7b0 da3e
000002a0: a2ce 893e 1be7 473c fa9e 8f3e 9982 95be
000002b0: 26bf 1a3f f45d e03e 2bb5 96be 97a7 f33e
000002c0: f34a 313f 9188 923e 9653 68be b0d9 34bf
000002d0: fa48 8bbe c12b 153f 8214 673e d82e 2b3e
000002e0: c8dc 853f 1666 ea3e d172 f03e 0bcd ca3d
000002f0: aa9b ff3e 8bd7 713e 6531 bc3e 7155 d93e
00000300: 7b3e 37bd 79ba bebc 377f 2e3d 9967 093f
00000310: 1305 9bbd e0c2 2e3e 578e f23e 02f8 0d3e
00000320: 0361 cc3e adce 2e3f d0e5 043f 1997 7bbd
00000330: b791 d53e 1005 e73d 8b48 19be 06c9 3b3f
00000340: 09fb 77be 846d 74be 5bbd bcbc 5fbe 74be
00000350: 2fed 873e 5150 16bf 2fb2 d13d e755 a7bc
00000360: 0cfa 783d d7a0 063e 4faa e9bd 1db0 1c3f
00000370: 88c9 a6be 5cff b0bd e84f 0d3f 7efe 433f
00000380: 83f1 00bf 3dbb 183e b223 843e af82 d5bc
00000390: 7054 823c 51d8 febd 781a 16bd c858 163e
000003a0: ed2f 693f 8bfc e0bd 84bb 8ebe 1b45 3a3e
000003b0: 4d58 96be 86a7 7ebd bf49 a93e 91c0 ac3e
000003c0: 51e2 3dbe f02c ca3e 5442 c1be 726d cd3e
000003d0: 3fbc 26bd 9809 e23e 8b5c 1ebf 3838 b1be
000003e0: 1986 4a3e f769 ba3e b3b7 ae3e 0d52 283d
000003f0: e6e7 323f 9edc 1fbd 1443 6f3d d656 1ebf
-0.12197924 0.7140155 -0.04901982 0.42416283 -0.108508386 -0.50543445 0.7921669 0.07700239
0.23618224 0.49997205 0.22699548 -0.38101703 -0.17735034 0.4244461 -0.26369473 0.6612496
-0.20506425 -0.6565718 0.6443856 -0.65228146 -0.14689533 0.028992847 0.013743803 -0.24944192
0.029616356 0.52103984 0.1386497 0.35353056 -0.35294935 -0.013946801 0.32640713 -0.5101982
-0.5225351 0.5187397 0.28574163 1.0813472 0.672161 -0.25761473 0.234925 -0.09195689
-0.024646303 -0.14384328 -0.3398819 -0.31046903 -0.30644292 0.3400524 0.16384466 0.0894011
0.22720857 0.22352646 0.2655849 -0.6543964 0.6887387 0.31448063 0.3881975 0.10763303
-0.31407192 -0.7665743 -0.49411982 0.6462696 -0.42677316 0.3553819 0.6363399 0.48676375
0.0013367856 0.77513194 0.22940671 0.82630795 0.35058367 0.6959887 0.17074734 0.46298268
-0.2535965 0.2763882 0.044763837 -0.4714904 0.14414735 -0.3817214 -0.8334982 0.18689027
-0.042967048 0.16895027 -0.3179068 0.1996707 0.27071965 0.41221878 0.21909435 0.07243633
-1.1131089 0.051964205 0.15378515 0.53586835 0.055967476 0.15938438 0.43960932 -0.1816198
0.33490443 -0.2979423 0.57773 0.04332653 0.122830704 -0.5230997 0.82908875 0.6047714
0.04339043 0.021899648 -0.16933529 0.23965518 -0.2316679 0.4263165 0.1459149 0.6093239
-0.13375802 0.14651258 -0.118806146 0.28682393 -0.019194346 0.42737764 0.39173263 0.11350873
-0.1071303 0.67572534 0.5196026 0.09195684 0.6022618 -0.09922651 0.006603231 0.020169565
0.39682376 0.59529054 -0.10198175 -0.7116751 -0.32327545 0.041158456 0.4828243 0.31741405
0.8968402 0.5654437 -0.4250463 0.04336238 -0.24109794 0.59256536 -0.28026894 0.22868934
0.32950544 -0.34693143 0.29582676 -0.24480137 0.42407373 0.38879603 -0.09809595 0.28676006
-0.15288796 -0.2826217 -0.3810356 0.59610957 0.72412443 0.31589133 0.40577656 0.086986035
0.43336427 0.64197606 -0.08752016 0.40522206 0.116071574 0.57756525 0.34939212 0.427129
0.2691546 0.012201096 0.28050977 -0.292012 0.6044792 0.4382168 -0.29435095 0.47588798
0.6925499 0.28619817 -0.22688136 -0.70644665 -0.27204114 0.5826989 0.22566417 0.16717088
1.0458002 0.4578101 0.46962598 0.0990239 0.4992345 0.2361738 0.36756435 0.42448
-0.04473732 -0.023282276 0.04260179 0.536737 -0.07569327 0.17066526 0.47374222 0.13864139
0.39917764 0.6828411 0.51913166 -0.061423395 0.41712734 0.112802625 -0.14969079 0.7335361
-0.24216856 -0.23869902 -0.02303951 -0.23900746 0.26548144 -0.58716303 0.10239064 -0.020426704
0.06078534 0.13147293 -0.11409437 0.6120623 -0.3257563 -0.08642456 0.5520005 0.765602
-0.5036852 0.14915176 0.25808483 -0.026063291 0.015909404 -0.12443603 -0.036646336 0.14682305
0.91088754 -0.10985669 -0.27877438 0.18190424 -0.29364243 -0.06217148 0.33064076 0.33740667
-0.18543364 0.3948741 -0.37745917 0.40122563 -0.04070687 0.44147944 -0.6185996 -0.34613204
0.19777717 0.3640897 0.34124526 0.041093875 0.698851 -0.039028756 0.05841358 -0.6185125

l1.bias f4 [8]
00000000: 24c4 603f 1779 8e3f 7166 3d3f 6cd7 343f
00000010: 59a7 743e 8d54 1e3f 07e2 d23e e721 073f
0.87799287 1.1130704 0.7398444 0.7064121 0.23891963 0.61847764 0.4118807 0.52786106

l2.weight f4 [8, 8]
00000000: 66b5 683f ad84 46bf 9423 6a3f 75ed b83e
00000010: 2f00 803f d4da 3bbf 3faa 1b3f 7bb1 a43f
00000020: f50b bebf a276 3e3f 919b 433f c58e b43f
00000030: 2dde 72be 4072 b73e c645 843f e512 b0be
00000040: e0d4 26be 589a 443d 3440 b1be 0a29 523e
00000050: 9d98 863e 8539 a8be 81fd 27be 305d d0bc
00000060: 8b3c 9f3f 5835 843f 605b 16bf f480 43be
00000070: 2d55 143f f6aa a63f f421 9cbf 91ab 213f
00000080: fbd6 d93f 9c63 6a3f 9178 973f d381 903d
00000090: 4e58 56bf ab7a 4fbf 7a6a 043f ccbb 803e
000000a0: 6ada 363f 3b13 35bf 15dc af3e 6216 e43e
000000b0: b12f a73f 7df7 f63e 6404 43bf 1146 993f
000000c0: a124 b7be bfa4 743f 4443 8f3f c825 af3e
000000d0: 3fdf a8bd 4ed9 2abf cc63 b1be 4fcf 4b3f
000000e0: 2e4f 5ebe 3a85 1cbf 4b29 1d3f 1462 993e
000000f0: 17d4 403f 4b8c eb3e 3ce4 913f 0f3e a33e
0.9090179 -0.775462 0.9146054 0.36118665 1.0000056 -0.7338078 0.6080665 1.2866663
-1.4847399 0.7439977 0.7640925 1.410607 -0.23717566 0.35829353 1.0333793 -0.34389415
-0.16292143 0.047998756 -0.34619296 0.20523468 0.2628831 -0.32856384 -0.16405298 -0.02543506
1.2440351 1.0328779 -0.5873318 -0.1909216 0.5794247 1.3020923 -1.2197862 0.63152415
1.7018732 0.9155824 1.1833669 0.07056012 -0.8372849 -0.8104655 0.5172497 0.25143278
0.71427023 -0.7073247 0.34347597 0.44548327 1.3061429 0.48235694 -0.76178575 1.1974508
-0.35770133 0.9556388 1.1192403 0.34208512 -0.08245706 -0.6673783 -0.3464645 0.796132
-0.21709892 -0.6114079 0.61391133 0.2995764 0.75323623 0.46005473 1.1397777 0.31883284

l2.bias f4 [8]
00000000: 05f1 023e 9722 2a3f ebbe b4be d7f2 393f
00000010: 6976 ba3e 990f f13e 83b8 eb3e 76d5 1ebe
0.12787254 0.6645903 -0.3530191 0.7263617 0.36418465 0.47082213 0.4603921 -0.15511116

l3.weight f4 [9, 8]
00000000: 91bc 133f 0f59 96bf 80bb 3ebc 327f eebd
00000010: 568d 9c3e 280d 053d 1924 153f 3542 62bf
00000020: dccb 89bf 9c39 f93e e43d c7bd 708e 6b3c
00000030: 0a52 b03e 7c71 b1bf e6f1 363f 4c6b 52bf
00000040: 71a4 9ebf 1ed6 31bd 1072 013d 6122 293f
00000050: 6a95 e7bf 229e 7e3e a06e c23e 23e0 77be
00000060: afc1 1fbf 25b8 6b3f b0f6 c23c 05b1 a2be
00000070: ca32 84bf 3641 6dbf aec6 99bf 39e0 ca3e
00000080: 92c2 ff3e 61b1 a43e b8a7 04be 2484 debe
00000090: 67bd e4bf 249a a33e f7b4 59be efb1 073c
000000a0: 7be0 e93e 3fdd adbf ea7c 383e 7fc5 b93e
000000b0: 9645 afbf 1f28 113f 2b29 81bf 56ce d03e
000000c0: ceb2 7f3e 51eb 313d 0002 f1ba 47de 8bbf
000000d0: abc4 2a3f 72cb f1bf e3f7 593e e9e7 8a3e
000000e0: b8d4 14bf 536d 9bbf 1907 a13e d436 4c3f
000000f0: 87f0 333e 0838 b73d 3871 7cbf b708 19bf
00000100: d252 123f fa39 53be 2472 8e3d 422a b8bf
00000110: c094 183e e4af 073d 3131 553d 5674 193e
0.57709605 -1.1745929 -0.011641383 -0.11645354 0.3057658 0.03248325 0.58258206 -0.88382274
-1.0765338 0.48676765 -0.097286016 0.014377221 0.3443759 -1.3862758 0.7146286 -0.8219497
-1.2393934 -0.04341709 0.03160292 0.66068083 -1.8092473 0.2486501 0.37975025 -0.24206595
-0.6240491 0.9207786 0.02379927 -0.3177568 -1.0328 -0.9267763 -1.2013757 0.39624193
0.49953133 0.3216658 -0.12954605 -0.4346019 -1.7870301 0.31953537 -0.21260439 0.008282169
0.45679078 -1.3583144 0.18016401 0.3628349 -1.3693111 0.56701845 -1.0090688 0.40782422
0.24970552 0.043437306 -0.0018387437 -1.0927209 0.6670634 -1.8890212 0.21285968 0.27130058
-0.58137083 -1.2142738 0.31450728 0.7977116 0.17572223 0.08946234 -0.9861026 -0.5977892
0.57157624 -0.20627585 0.06955364 -1.4387896 0.14900494 0.033126727 0.052048866 0.14985785

l3.bias f4 [9]
00000000: 13bf 96be 6a8b e43e 670d d0bc e5b9 93bd
00000010: a27d bb3a 7f8a 2ebe f8e2 e4be 2456 bc3e
00000020: 4cab 8dbd
-0.29442653 0.44637614 -0.025397016 -0.07213191 0.0014304409 -0.1704502 -0.44704413 0.3678447
-0.06917438
